…
abel(s) found, 0 label(s) missing, 0 label(s) empty, 0 invalid label files: 100% 657/657 [00:00<00:00, 1751.00it/s]\n","Convert to COCO format\n","100% 657/657 [00:00<00:00, 45857.31it/s]\n","Convert to COCO format finished. Resutls saved in visual_pollution_dhaka-15/annotations/instances_valid.json\n","Val: Final numbers of valid images: 657/ labels: 657. \n","1.0s for dataset initialization.\n","Model: Model(\n","  (backbone): EfficientRep(\n","    (stem): RepVGGBlock(\n","      (nonlinearity): ReLU(inplace=True)\n","      (se): Identity()\n","      (rbr_dense): Sequential(\n","        (conv): Conv2d(3, 32, kernel_size=(3, 3), stride=(2, 2), padding=(1, 1), bias=False)\n","        (bn): BatchNorm2d(32, eps=0.001, momentum=0.03, affine=True, track_running_stats=True)\n","      )\n","      (rbr_1x1): Sequential(\n","        (conv): Conv2d(3, 32, kernel_size=(1, 1), stride=(2, 2), bias=False)\n","        (bn): BatchNorm2d(32, eps=0.001, momentum=0.03, affine=True, track_running_stats=True)\n","      )\n","    )\n","    (ERBlock_2): Sequential(\n","      (0): RepVGGBlock(\n","        (nonlinearity): ReLU(inplace=True)\n","        (se): Identity()\n","        (rbr_dense): Sequential(\n","          (conv): Conv2d(32, 64, kernel_size=(3, 3), stride=(2, 2), padding=(1, 1), bias=False)\n","          (bn): BatchNorm2d(64, eps=0.001, momentum=0.03, affine=True, track_running_stats=True)\n","        )\n","        (rbr_1x1): Sequential(\n","          (conv): Conv2d(32, 64, kernel_size=(1, 1), stride=(2, 2), bias=False)\n","          (bn): BatchNorm2d(64, eps=0.001, momentum=0.03, affine=True, track_running_stats=True)\n","        )\n","      )\n","      (1): RepBlock(\n","        (conv1): RepVGGBlock(\n","          (nonlinearity): ReLU(inplace=True)\n","          (se): Identity()\n","          (rbr_identity): BatchNorm2d(64, eps=0.001, momentum=0.03, affine=True, track_running_stats=True)\n","          (rbr_dense): Sequential(\n","            (conv): Conv2d(64, 64, kernel_size=(3, 3), stride=(1, 1), padding=(1, 1), bias=False)\n","            (bn): BatchNorm2d(64, eps=0.001, momentum=0.03, affine=True, track_running_stats=True)\n","          )\n","          (rbr_1x1): Sequential(\n","            (conv): Conv2d(64, 64, kernel_size=(1, 1), stride=(1, 1), bias=False)\n","            (bn): BatchNorm2d(64, eps=0.001, momentum=0.03, affine=True, track_running_stats=True)\n","          )\n","        )\n","        (block): Sequential(\n","          (0): RepVGGBlock(\n","            (nonlinearity): ReLU(inplace=True)\n","            (se): Identity()\n","            (rbr_identity): BatchNorm2d(64, eps=0.001, momentum=0.03, affine=True, track_running_stats=True)\n","            (rbr_dense): Sequential(\n","              (conv): Conv2d(64, 64, kernel_size=(3, 3), stride=(1, 1), padding=(1, 1), bias=False)\n","              (bn): BatchNorm2d(64, eps=0.001, momentum=0.03, affine=True, track_running_stats=True)\n","            )\n","            (rbr_1x1): Sequential(\n","              (conv): Conv2d(64, 64, kernel_size=(1, 1), stride=(1, 1), bias=False)\n","              (bn): BatchNorm2d(64, eps=0.001, momentum=0.03, affine=True, track_running_stats=True)\n","            )\n","          )\n","        )\n","      )\n","    )\n","    (ERBlock_3): Sequential(\n","      (0): RepVGGBlock(\n","        (nonlinearity): ReLU(inplace=True)\n","        (se): Identity()\n","        (rbr_dense): Sequential(\n","          (conv): Conv2d(64, 128, kernel_size=(3, 3), stride=(2, 2), padding=(1, 1), bias=False)\n","          (bn): BatchNorm2d(128, eps=0.001, momentum=0.03, affine=True, track_running_stats=True)\n","        )\n","        (rbr_1x1): Sequential(\n","          (conv): Conv2d(64, 128, kernel_size=(1, 1), stride=(2, 2), bias=False)\n","          (bn): BatchNorm2d(128, eps=0.001, momentum=0.03, affine=True, track_running_stats=True)\n","        )\n","      )\n","      (1): RepBlock(\n","        (conv1): RepVGGBlock(\n","          (nonlinearity): ReLU(inplace=True)\n","          (se): Identity()\n","          (rbr_identity): BatchNorm2d(128, eps=0.001, momentum=0.03, affine=True, track_running_stats=True)\n","          (rbr_dense): Sequential(\n","            (conv): Conv2d(128, 128, kernel_size=(3, 3), stride=(1, 1), padding=(1, 1), bias=False)\n","            (bn): BatchNorm2d(128, eps=0.001, momentum=0.03, affine=True, track_running_stats=True)\n","          )\n","          (rbr_1x1): Sequential(\n","            (conv): Conv2d(128, 128, kernel_size=(1, 1), stride=(1, 1), bias=False)\n","            (bn): BatchNorm2d(128, eps=0.001, momentum=0.03, affine=True, track_running_stats=True)\n","          )\n","        )\n","        (block): Sequential(\n","          (0): RepVGGBlock(\n","            (nonlinearity): ReLU(inplace=True)\n","            (se): Identity()\n","            (rbr_identity): BatchNorm2d(128, eps=0.001, momentum=0.03, affine=True, track_running_stats=True)\n","            (rbr_dense): Sequential(\n","              (conv): Conv2d(128, 128, kernel_size=(3, 3), stride=(1, 1), padding=(1, 1), bias=False)\n","              (bn): BatchNorm2d(128, eps=0.001, momentum=0.03, affine=True, track_running_stats=True)\n","            )\n","            (rbr_1x1): Sequential(\n","              (conv): Conv2d(128, 128, kernel_size=(1, 1), stride=(1, 1), bias=False)\n","              (bn): BatchNorm2d(128, eps=0.001, momentum=0.03, affine=True, track_running_stats=True)\n","            )\n","          )\n","          (1): RepVGGBlock(\n","            (nonlinearity): ReLU(inplace=True)\n","            (se): Identity()\n","            (rbr_identity): BatchNorm2d(128, eps=0.001, momentum=0.03, affine=True, track_running_stats=True)\n","            (rbr_dense): Sequential(\n","              (conv): Conv2d(128, 128, kernel_size=(3, 3), stride=(1, 1), padding=(1, 1), bias=False)\n","              (bn): BatchNorm2d(128, eps=0.001, momentum=0.03, affine=True, track_running_stats=True)\n","            )\n","            (rbr_1x1): Sequential(\n","              (conv): Conv2d(128, 128, kernel_size=(1, 1), stride=(1, 1), bias=False)\n","              (bn): BatchNorm2d(128, eps=0.001, momentum=0.03, affine=True, track_running_stats=True)\n","            )\n","          )\n","          (2): RepVGGBlock(\n","            (nonlinearity): ReLU(inplace=True)\n","            (se): Identity()\n","            (rbr_identity): BatchNorm2d(128, eps=0.001, momentum=0.03, affine=True, track_running_stats=True)\n","            (rbr_dense): Sequential(\n","              (conv): Conv2d(128, 128, kernel_size=(3, 3), stride=(1, 1), padding=(1, 1), bias=False)\n","              (bn): BatchNorm2d(128, eps=0.001, momentum=0.03, affine=True, track_running_stats=True)\n","            )\n","            (rbr_1x1): Sequential(\n","              (conv): Conv2d(128, 128, kernel_size=(1, 1), stride=(1, 1), bias=False)\n","              (bn): BatchNorm2d(128, eps=0.001, momentum=0.03, affine=True, track_running_stats=True)\n","            )\n","          )\n","        )\n","      )\n","    )\n","    (ERBlock_4): Sequential(\n","      (0): RepVGGBlock(\n","        (nonlinearity): ReLU(inplace=True)\n","        (se): Identity()\n","        (rbr_dense): Sequential(\n","          (conv): Conv2d(128, 256, kernel_size=(3, 3), stride=(2, 2), padding=(1, 1), bias=False)\n","          (bn): BatchNorm2d(256, eps=0.001, momentum=0.03, affine=True, track_running_stats=True)\n","        )\n","        (rbr_1x1): Sequential(\n","          (conv): Conv2d(128, 256, kernel_size=(1, 1), stride=(2, 2), bias=False)\n","          (bn): BatchNorm2d(256, eps=0.001, momentum=0.03, affine=True, track_running_stats=True)\n","        )\n","      )\n","      (1): RepBlock(\n","        (conv1): RepVGGBlock(\n","          (nonlinearity): ReLU(inplace=True)\n","          (se): Identity()\n","          (rbr_identity): BatchNorm2d(256, eps=0.001, momentum=0.03, affine=True, track_running_stats=True)\n","          (rbr_dense): Sequential(\n","            (conv): Conv2d(256, 256, kernel_size=(3, 3), stride=(1, 1), padding=(1, 1), bias=False)\n","            (bn): BatchNorm2d(256, eps=0.001, momentum=0.03, affine=True, track_running_stats=True)\n","          )\n","          (rbr_1x1): Sequential(\n","            (conv): Conv2d(256, 256, kernel_size=(1, 1), stride=(1, 1), bias=False)\n","            (bn): BatchNorm2d(256, eps=0.001, momentum=0.03, affine=True, track_running_stats=True)\n","          )\n","        )\n","        (block): Sequential(\n","          (0): RepVGGBlock(\n","            (nonlinearity): ReLU(inplace=True)\n","            (se): Identity()\n","            (rbr_identity): BatchNorm2d(256, eps=0.001, momentum=0.03, affine=True, track_running_stats=True)\n","            (rbr_dense): Sequential(\n","              (conv): Conv2d(256, 256, kernel_size=(3, 3), stride=(1, 1), padding=(1, 1), bias=False)\n","              (bn): BatchNorm2d(256, eps=0.001, momentum=0.03, affine=True, track_running_stats=True)\n","            )\n","            (rbr_1x1): Sequential(\n","              (conv): Conv2d(256, 256, kernel_size=(1, 1), stride=(1, 1), bias=False)\n","              (bn): BatchNorm2d(256, eps=0.001, momentum=0.03, affine=True, track_running_stats=True)\n","            )\n","          )\n","          (1): RepVGGBlock(\n","            (nonlinearity): ReLU(inplace=True)\n","            (se): Identity()\n","            (rbr_identity): BatchNorm2d(256, eps=0.001, momentum=0.03, affine=True, track_running_stats=True)\n","            (rbr_dense): Sequential(\n","              (conv): Conv2d(256, 256, kernel_size=(3, 3), stride=(1, 1), padding=(1, 1), bias=False)\n","              (bn): BatchNorm2d(256, eps=0.001, momentum=0.03, affine=True, track_running_stats=True)\n","            )\n","            (rbr_1x1): Sequential(\n","              (conv): Conv2d(256, 256, kernel_size=(1, 1), stride=(1, 1), bias=False)\n","              (bn): BatchNorm2d(256, eps=0.001, momentum=0.03, affine=True, track_running_stats=True)\n","            )\n","          )\n","          (2): RepVGGBlock(\n","            (nonlinearity): ReLU(inplace=True)\n","            (se): Identity()\n","            (rbr_identity): BatchNorm2d(256, eps=0.001, momentum=0.03, affine=True, track_running_stats=True)\n","            (rbr_dense): Sequential(\n","              (conv): Conv2d(256, 256, kernel_size=(3, 3), stride=(1, 1), padding=(1, 1), bias=False)\n","              (bn): BatchNorm2d(256, eps=0.001, momentum=0.03, affine=True, track_running_stats=True)\n","            )\n","            (rbr_1x1): Sequential(\n","              (conv): Conv2d(256, 256, kernel_size=(1, 1), stride=(1, 1), bias=False)\n","              (bn): BatchNorm2d(256, eps=0.001, momentum=0.03, affine=True, track_running_stats=True)\n","            )\n","          )\n","          (3): RepVGGBlock(\n","            (nonlinearity): ReLU(inplace=True)\n","            (se): Identity()\n","            (rbr_identity): BatchNorm2d(256, eps=0.001, momentum=0.03, affine=True, track_running_stats=True)\n","            (rbr_dense): Sequential(\n","              (conv): Conv2d(256, 256, kernel_size=(3, 3), stride=(1, 1), padding=(1, 1), bias=False)\n","              (bn): BatchNorm2d(256, eps=0.001, momentum=0.03, affine=True, track_running_stats=True)\n","            )\n","            (rbr_1x1): Sequential(\n","              (conv): Conv2d(256, 256, kernel_size=(1, 1), stride=(1, 1), bias=False)\n","              (bn): BatchNorm2d(256, eps=0.001, momentum=0.03, affine=True, track_running_stats=True)\n","            )\n","          )\n","          (4): RepVGGBlock(\n","            (nonlinearity): ReLU(inplace=True)\n","            (se): Identity()\n","            (rbr_identity): BatchNorm2d(256, eps=0.001, momentum=0.03, affine=True, track_running_stats=True)\n","            (rbr_dense): Sequential(\n","              (conv): Conv2d(256, 256, kernel_size=(3, 3), stride=(1, 1), padding=(1, 1), bias=False)\n","              (bn): BatchNorm2d(256, eps=0.001, momentum=0.03, affine=True, track_running_stats=True)\n","            )\n","            (rbr_1x1): Sequential(\n","              (conv): Conv2d(256, 256, kernel_size=(1, 1), stride=(1, 1), bias=False)\n","              (bn): BatchNorm2d(256, eps=0.001, momentum=0.03, affine=True, track_running_stats=True)\n","            )\n","          )\n","        )\n","      )\n","    )\n","    (ERBlock_5): Sequential(\n","      (0): RepVGGBlock(\n","        (nonlinearity): ReLU(inplace=True)\n","        (se): Identity()\n","        (rbr_dense): Sequential(\n","          (conv): Conv2d(256, 512, kernel_size=(3, 3), stride=(2, 2), padding=(1, 1), bias=False)\n","          (bn): BatchNorm2d(512, eps=0.001, momentum=0.03, affine=True, track_running_stats=True)\n","        )\n","        (rbr_1x1): Sequential(\n","          (conv): Conv2d(256, 512, kernel_size=(1, 1), stride=(2, 2), bias=False)\n","          (bn): BatchNorm2d(512, eps=0.001, momentum=0.03, affine=True, track_running_stats=True)\n","        )\n","      )\n","      (1): RepBlock(\n","        (conv1): RepVGGBlock(\n","          (nonlinearity): ReLU(inplace=True)\n","          (se): Identity()\n","          (rbr_identity): BatchNorm2d(512, eps=0.001, momentum=0.03, affine=True, track_running_stats=True)\n","          (rbr_dense): Sequential(\n","            (conv): Conv2d(512, 512, kernel_size=(3, 3), stride=(1, 1), padding=(1, 1), bias=False)\n","            (bn): BatchNorm2d(512, eps=0.001, momentum=0.03, affine=True, track_running_stats=True)\n","          )\n","          (rbr_1x1): Sequential(\n","            (conv): Conv2d(512, 512, kernel_size=(1, 1), stride=(1, 1), bias=False)\n","            (bn): BatchNorm2d(512, eps=0.001, momentum=0.03, affine=True, track_running_stats=True)\n","          )\n","        )\n","        (block): Sequential(\n","          (0): RepVGGBlock(\n","            (nonlinearity): ReLU(inplace=True)\n","            (se): Identity()\n","            (rbr_identity): BatchNorm2d(512, eps=0.001, momentum=0.03, affine=True, track_running_stats=True)\n","            (rbr_dense): Sequential(\n","              (conv): Conv2d(512, 512, kernel_size=(3, 3), stride=(1, 1), padding=(1, 1), bias=False)\n","              (bn): BatchNorm2d(512, eps=0.001, momentum=0.03, affine=True, track_running_stats=True)\n","            )\n","            (rbr_1x1): Sequential(\n","              (conv): Conv2d(512, 512, kernel_size=(1, 1), stride=(1, 1), bias=False)\n","              (bn): BatchNorm2d(512, eps=0.001, momentum=0.03, affine=True, track_running_stats=True)\n","            )\n","          )\n","        )\n","      )\n","      (2): SimSPPF(\n","        (cv1): SimConv(\n","          (conv): Conv2d(512, 256, kernel_size=(1, 1), stride=(1, 1), bias=False)\n","          (bn): BatchNorm2d(256, eps=0.001, momentum=0.03, affine=True, track_running_stats=True)\n","          (act): ReLU(inplace=True)\n","        )\n","        (cv2): SimConv(\n","          (conv): Conv2d(1024, 512, kernel_size=(1, 1), stride=(1, 1), bias=False)\n","          (bn): BatchNorm2d(512, eps=0.001, momentum=0.03, affine=True, track_running_stats=True)\n","          (act): ReLU(inplace=True)\n","        )\n","        (m): MaxPool2d(kernel_size=5, stride=1, padding=2, dilation=1, ceil_mode=False)\n","      )\n","    )\n","  )\n","  (neck): RepPANNeck(\n","    (Rep_p4): RepBlock(\n","      (conv1): RepVGGBlock(\n","        (nonlinearity): ReLU(inplace=True)\n","        (se): Identity()\n","        (rbr_dense): Sequential(\n","          (conv): Conv2d(384, 128, kernel_size=(3, 3), stride=(1, 1), padding=(1, 1), bias=False)\n","          (bn): BatchNorm2d(128, eps=0.001, momentum=0.03, affine=True, track_running_stats=True)\n","        )\n","        (rbr_1x1): Sequential(\n","          (conv): Conv2d(384, 128, kernel_size=(1, 1), stride=(1, 1), bias=False)\n","          (bn): BatchNorm2d(128, eps=0.001, momentum=0.03, affine=True, track_running_stats=True)\n","        )\n","      )\n","      (block): Sequential(\n","        (0): RepVGGBlock(\n","          (nonlinearity): ReLU(inplace=True)\n","          (se): Identity()\n","          (rbr_identity): BatchNorm2d(128, eps=0.001, momentum=0.03, affine=True, track_running_stats=True)\n","          (rbr_dense): Sequential(\n","            (conv): Conv2d(128, 128, kernel_size=(3, 3), stride=(1, 1), padding=(1, 1), bias=False)\n","            (bn): BatchNorm2d(128, eps=0.001, momentum=0.03, affine=True, track_running_stats=True)\n","          )\n","          (rbr_1x1): Sequential(\n","            (conv): Conv2d(128, 128, kernel_size=(1, 1), stride=(1, 1), bias=False)\n","            (bn): BatchNorm2d(128, eps=0.001, momentum=0.03, affine=True, track_running_stats=True)\n","          )\n","        )\n","        (1): RepVGGBlock(\n","          (nonlinearity): ReLU(inplace=True)\n","          (se): Identity()\n","          (rbr_identity): BatchNorm2d(128, eps=0.001, momentum=0.03, affine=True, track_running_stats=True)\n","          (rbr_dense): Sequential(\n","            (conv): Conv2d(128, 128, kernel_size=(3, 3), stride=(1, 1), padding=(1, 1), bias=False)\n","            (bn): BatchNorm2d(128, eps=0.001, momentum=0.03, affine=True, track_running_stats=True)\n","          )\n","          (rbr_1x1): Sequential(\n","            (conv): Conv2d(128, 128, kernel_size=(1, 1), stride=(1, 1), bias=False)\n","            (bn): BatchNorm2d(128, eps=0.001, momentum=0.03, affine=True, track_running_stats=True)\n","          )\n","        )\n","        (2): RepVGGBlock(\n","          (nonlinearity): ReLU(inplace=True)\n","          (se): Identity()\n","          (rbr_identity): BatchNorm2d(128, eps=0.001, momentum=0.03, affine=True, track_running_stats=True)\n","          (rbr_dense): Sequential(\n","            (conv): Conv2d(128, 128, kernel_size=(3, 3), stride=(1, 1), padding=(1, 1), bias=False)\n","            (bn): BatchNorm2d(128, eps=0.001, momentum=0.03, affine=True, track_running_stats=True)\n","          )\n","          (rbr_1x1): Sequential(\n","            (conv): Conv2d(128, 128, kernel_size=(1, 1), stride=(1, 1), bias=False)\n","            (bn): BatchNorm2d(128, eps=0.001, momentum=0.03, affine=True, track_running_stats=True)\n","          )\n","        )\n","      )\n","    )\n","    (Rep_p3): RepBlock(\n","      (conv1): RepVGGBlock(\n","        (nonlinearity): ReLU(inplace=True)\n","        (se): Identity()\n","        (rbr_dense): Sequential(\n","          (conv): Conv2d(192, 64, kernel_size=(3, 3), stride=(1, 1), padding=(1, 1), bias=False)\n","          (bn): BatchNorm2d(64, eps=0.001, momentum=0.03, affine=True, track_running_stats=True)\n","        )\n","        (rbr_1x1): Sequential(\n","          (conv): Conv2d(192, 64, kernel_size=(1, 1), stride=(1, 1), bias=False)\n","          (bn): BatchNorm2d(64, eps=0.001, momentum=0.03, affine=True, track_running_stats=True)\n","        )\n","      )\n","      (block): Sequential(\n","        (0): RepVGGBlock(\n","          (nonlinearity): ReLU(inplace=True)\n","          (se): Identity()\n","          (rbr_identity): BatchNorm2d(64, eps=0.001, momentum=0.03, affine=True, track_running_stats=True)\n","          (rbr_dense): Sequential(\n","            (conv): Conv2d(64, 64, kernel_size=(3, 3), stride=(1, 1), padding=(1, 1), bias=False)\n","            (bn): BatchNorm2d(64, eps=0.001, momentum=0.03, affine=True, track_running_stats=True)\n","          )\n","          (rbr_1x1): Sequential(\n","            (conv): Conv2d(64, 64, kernel_size=(1, 1), stride=(1, 1), bias=False)\n","            (bn): BatchNorm2d(64, eps=0.001, momentum=0.03, affine=True, track_running_stats=True)\n","          )\n","        )\n","        (1): RepVGGBlock(\n","          (nonlinearity): ReLU(inplace=True)\n","          (se): Identity()\n","          (rbr_identity): BatchNorm2d(64, eps=0.001, momentum=0.03, affine=True, track_running_stats=True)\n","          (rbr_dense): Sequential(\n","            (conv): Conv2d(64, 64, kernel_size=(3, 3), stride=(1, 1), padding=(1, 1), bias=False)\n","            (bn): BatchNorm2d(64, eps=0.001, momentum=0.03, affine=True, track_running_stats=True)\n","          )\n","          (rbr_1x1): Sequential(\n","            (conv): Conv2d(64, 64, kernel_size=(1, 1), stride=(1, 1), bias=False)\n","            (bn): BatchNorm2d(64, eps=0.001, momentum=0.03, affine=True, track_running_stats=True)\n","          )\n","        )\n","        (2): RepVGGBlock(\n","          (nonlinearity): ReLU(inplace=True)\n","          (se): Identity()\n","          (rbr_identity): BatchNorm2d(64, eps=0.001, momentum=0.03, affine=True, track_running_stats=True)\n","          (rbr_dense): Sequential(\n","            (conv): Conv2d(64, 64, kernel_size=(3, 3), stride=(1, 1), padding=(1, 1), bias=False)\n","            (bn): BatchNorm2d(64, eps=0.001, momentum=0.03, affine=True, track_running_stats=True)\n","          )\n","          (rbr_1x1): Sequential(\n","            (conv): Conv2d(64, 64, kernel_size=(1, 1), stride=(1, 1), bias=False)\n","            (bn): BatchNorm2d(64, eps=0.001, momentum=0.03, affine=True, track_running_stats=True)\n","          )\n","        )\n","      )\n","    )\n","    (Rep_n3): RepBlock(\n","      (conv1): RepVGGBlock(\n","        (nonlinearity): ReLU(inplace=True)\n","        (se): Identity()\n","        (rbr_identity): BatchNorm2d(128, eps=0.001, momentum=0.03, affine=True, track_running_stats=True)\n","        (rbr_dense): Sequential(\n","          (conv): Conv2d(128, 128, kernel_size=(3, 3), stride=(1, 1), padding=(1, 1), bias=False)\n","          (bn): BatchNorm2d(128, eps=0.001, momentum=0.03, affine=True, track_running_stats=True)\n","        )\n","        (rbr_1x1): Sequential(\n","          (conv): Conv2d(128, 128, kernel_size=(1, 1), stride=(1, 1), bias=False)\n","          (bn): BatchNorm2d(128, eps=0.001, momentum=0.03, affine=True, track_running_stats=True)\n","        )\n","      )\n","      (block): Sequential(\n","        (0): RepVGGBlock(\n","          (nonlinearity): ReLU(inplace=True)\n","          (se): Identity()\n","          (rbr_identity): BatchNorm2d(128, eps=0.001, momentum=0.03, affine=True, track_running_stats=True)\n","          (rbr_dense): Sequential(\n","            (conv): Conv2d(128, 128, kernel_size=(3, 3), stride=(1, 1), padding=(1, 1), bias=False)\n","            (bn): BatchNorm2d(128, eps=0.001, momentum=0.03, affine=True, track_running_stats=True)\n","          )\n","          (rbr_1x1): Sequential(\n","            (conv): Conv2d(128, 128, kernel_size=(1, 1), stride=(1, 1), bias=False)\n","            (bn): BatchNorm2d(128, eps=0.001, momentum=0.03, affine=True, track_running_stats=True)\n","          )\n","        )\n","        (1): RepVGGBlock(\n","          (nonlinearity): ReLU(inplace=True)\n","          (se): Identity()\n","          (rbr_identity): BatchNorm2d(128, eps=0.001, momentum=0.03, affine=True, track_running_stats=True)\n","          (rbr_dense): Sequential(\n","            (conv): Conv2d(128, 128, kernel_size=(3, 3), stride=(1, 1), padding=(1, 1), bias=False)\n","            (bn): BatchNorm2d(128, eps=0.001, momentum=0.03, affine=True, track_running_stats=True)\n","          )\n","          (rbr_1x1): Sequential(\n","            (conv): Conv2d(128, 128, kernel_size=(1, 1), stride=(1, 1), bias=False)\n","            (bn): BatchNorm2d(128, eps=0.001, momentum=0.03, affine=True, track_running_stats=True)\n","          )\n","        )\n","        (2): RepVGGBlock(\n","          (nonlinearity): ReLU(inplace=True)\n","          (se): Identity()\n","          (rbr_identity): BatchNorm2d(128, eps=0.001, momentum=0.03, affine=True, track_running_stats=True)\n","          (rbr_dense): Sequential(\n","            (conv): Conv2d(128, 128, kernel_size=(3, 3), stride=(1, 1), padding=(1, 1), bias=False)\n","            (bn): BatchNorm2d(128, eps=0.001, momentum=0.03, affine=True, track_running_stats=True)\n","          )\n","          (rbr_1x1): Sequential(\n","            (conv): Conv2d(128, 128, kernel_size=(1, 1), stride=(1, 1), bias=False)\n","            (bn): BatchNorm2d(128, eps=0.001, momentum=0.03, affine=True, track_running_stats=True)\n","          )\n","        )\n","      )\n","    )\n","    (Rep_n4): RepBlock(\n","      (conv1): RepVGGBlock(\n","        (nonlinearity): ReLU(inplace=True)\n","        (se): Identity()\n","        (rbr_identity): BatchNorm2d(256, eps=0.001, momentum=0.03, affine=True, track_running_stats=True)\n","        (rbr_dense): Sequential(\n","          (conv): Conv2d(256, 256, kernel_size=(3, 3), stride=(1, 1), padding=(1, 1), bias=False)\n","          (bn): BatchNorm2d(256, eps=0.001, momentum=0.03, affine=True, track_running_stats=True)\n","        )\n","        (rbr_1x1): Sequential(\n","          (conv): Conv2d(256, 256, kernel_size=(1, 1), stride=(1, 1), bias=False)\n","          (bn): BatchNorm2d(256, eps=0.001, momentum=0.03, affine=True, track_running_stats=True)\n","        )\n","      )\n","      (block): Sequential(\n","        (0): RepVGGBlock(\n","          (nonlinearity): ReLU(inplace=True)\n","          (se): Identity()\n","          (rbr_identity): BatchNorm2d(256, eps=0.001, momentum=0.03, affine=True, track_running_stats=True)\n","          (rbr_dense): Sequential(\n","            (conv): Conv2d(256, 256, kernel_size=(3, 3), stride=(1, 1), padding=(1, 1), bias=False)\n","            (bn): BatchNorm2d(256, eps=0.001, momentum=0.03, affine=True, track_running_stats=True)\n","          )\n","          (rbr_1x1): Sequential(\n","            (conv): Conv2d(256, 256, kernel_size=(1, 1), stride=(1, 1), bias=False)\n","            (bn): BatchNorm2d(256, eps=0.001, momentum=0.03, affine=True, track_running_stats=True)\n","          )\n","        )\n","        (1): RepVGGBlock(\n","          (nonlinearity): ReLU(inplace=True)\n","          (se): Identity()\n","          (rbr_identity): BatchNorm2d(256, eps=0.001, momentum=0.03, affine=True, track_running_stats=True)\n","          (rbr_dense): Sequential(\n","            (conv): Conv2d(256, 256, kernel_size=(3, 3), stride=(1, 1), padding=(1, 1), bias=False)\n","            (bn): BatchNorm2d(256, eps=0.001, momentum=0.03, affine=True, track_running_stats=True)\n","          )\n","          (rbr_1x1): Sequential(\n","            (conv): Conv2d(256, 256, kernel_size=(1, 1), stride=(1, 1), bias=False)\n","            (bn): BatchNorm2d(256, eps=0.001, momentum=0.03, affine=True, track_running_stats=True)\n","          )\n","        )\n","        (2): RepVGGBlock(\n","          (nonlinearity): ReLU(inplace=True)\n","          (se): Identity()\n","          (rbr_identity): BatchNorm2d(256, eps=0.001, momentum=0.03, affine=True, track_running_stats=True)\n","          (rbr_dense): Sequential(\n","            (conv): Conv2d(256, 256, kernel_size=(3, 3), stride=(1, 1), padding=(1, 1), bias=False)\n","            (bn): BatchNorm2d(256, eps=0.001, momentum=0.03, affine=True, track_running_stats=True)\n","          )\n","          (rbr_1x1): Sequential(\n","            (conv): Conv2d(256, 256, kernel_size=(1, 1), stride=(1, 1), bias=False)\n","            (bn): BatchNorm2d(256, eps=0.001, momentum=0.03, affine=True, track_running_stats=True)\n","          )\n","        )\n","      )\n","    )\n","    (reduce_layer0): SimConv(\n","      (conv): Conv2d(512, 128, kernel_size=(1, 1), stride=(1, 1), bias=False)\n","      (bn): BatchNorm2d(128, eps=0.001, momentum=0.03, affine=True, track_running_stats=True)\n","      (act): ReLU(inplace=True)\n","    )\n","    (upsample0): Transpose(\n","      (upsample_transpose): ConvTranspose2d(128, 128, kernel_size=(2, 2), stride=(2, 2))\n","    )\n","    (reduce_layer1): SimConv(\n","      (conv): Conv2d(128, 64, kernel_size=(1, 1), stride=(1, 1), bias=False)\n","      (bn): BatchNorm2d(64, eps=0.001, momentum=0.03, affine=True, track_running_stats=True)\n","      (act): ReLU(inplace=True)\n","    )\n","    (upsample1): Transpose(\n","      (upsample_transpose): ConvTranspose2d(64, 64, kernel_size=(2, 2), stride=(2, 2))\n","    )\n","    (downsample2): SimConv(\n","      (conv): Conv2d(64, 64, kernel_size=(3, 3), stride=(2, 2), padding=(1, 1), bias=False)\n","      (bn): BatchNorm2d(64, eps=0.001, momentum=0.03, affine=True, track_running_stats=True)\n","      (act): ReLU(inplace=True)\n","    )\n","    (downsample1): SimConv(\n","      (conv): Conv2d(128, 128, kernel_size=(3, 3), stride=(2, 2), padding=(1, 1), bias=False)\n","      (bn): BatchNorm2d(128, eps=0.001, momentum=0.03, affine=True, track_running_stats=True)\n","      (act): ReLU(inplace=True)\n","    )\n","  )\n","  (detect): Detect(\n","    (proj_conv): Conv2d(17, 1, kernel_size=(1, 1), stride=(1, 1), bias=False)\n","    (stems): ModuleList(\n","      (0): Conv(\n","        (conv): Conv2d(64, 64, kernel_size=(1, 1), stride=(1, 1), bias=False)\n","        (bn): BatchNorm2d(64, eps=0.001, momentum=0.03, affine=True, track_running_stats=True)\n","        (act): SiLU(inplace=True)\n","      )\n","      (1): Conv(\n","        (conv): Conv2d(128, 128, kernel_size=(1, 1), stride=(1, 1), bias=False)\n","        (bn): BatchNorm2d(128, eps=0.001, momentum=0.03, affine=True, track_running_stats=True)\n","        (act): SiLU(inplace=True)\n","      )\n","      (2): Conv(\n","        (conv): Conv2d(256, 256, kernel_size=(1, 1), stride=(1, 1), bias=False)\n","        (bn): BatchNorm2d(256, eps=0.001, momentum=0.03, affine=True, track_running_stats=True)\n","        (act): SiLU(inplace=True)\n","      )\n","    )\n","    (cls_convs): ModuleList(\n","      (0): Conv(\n","        (conv): Conv2d(64, 64, kernel_size=(3, 3), stride=(1, 1), padding=(1, 1), bias=False)\n","        (bn): BatchNorm2d(64, eps=0.001, momentum=0.03, affine=True, track_running_stats=True)\n","        (act): SiLU(inplace=True)\n","      )\n","      (1): Conv(\n","        (conv): Conv2d(128, 128, kernel_size=(3, 3), stride=(1, 1), padding=(1, 1), bias=False)\n","        (bn): BatchNorm2d(128, eps=0.001, momentum=0.03, affine=True, track_running_stats=True)\n","        (act): SiLU(inplace=True)\n","      )\n","      (2): Conv(\n","        (conv): Conv2d(256, 256, kernel_size=(3, 3), stride=(1, 1), padding=(1, 1), bias=False)\n","        (bn): BatchNorm2d(256, eps=0.001, momentum=0.03, affine=True, track_running_stats=True)\n","        (act): SiLU(inplace=True)\n","      )\n","    )\n","    (reg_convs): ModuleList(\n","      (0): Conv(\n","        (conv): Conv2d(64, 64, kernel_size=(3, 3), stride=(1, 1), padding=(1, 1), bias=False)\n","        (bn): BatchNorm2d(64, eps=0.001, momentum=0.03, affine=True, track_running_stats=True)\n","        (act): SiLU(inplace=True)\n","      )\n","      (1): Conv(\n","        (conv): Conv2d(128, 128, kernel_size=(3, 3), stride=(1, 1), padding=(1, 1), bias=False)\n","        (bn): BatchNorm2d(128, eps=0.001, momentum=0.03, affine=True, track_running_stats=True)\n","        (act): SiLU(inplace=True)\n","      )\n","      (2): Conv(\n","        (conv): Conv2d(256, 256, kernel_size=(3, 3), stride=(1, 1), padding=(1, 1), bias=False)\n","        (bn): BatchNorm2d(256, eps=0.001, momentum=0.03, affine=True, track_running_stats=True)\n","        (act): SiLU(inplace=True)\n","      )\n","    )\n","    (cls_preds): ModuleList(\n","      (0): Conv2d(64, 9, kernel_size=(1, 1), stride=(1, 1))\n","      (1): Conv2d(128, 9, kernel_size=(1, 1), stride=(1, 1))\n","      (2): Conv2d(256, 9, kernel_size=(1, 1), stride=(1, 1))\n","    )\n","    (reg_preds): ModuleList(\n","      (0): Conv2d(64, 4, kernel_size=(1, 1), stride=(1, 1))\n","      (1): Conv2d(128, 4, kernel_size=(1, 1), stride=(1, 1))\n","      (2): Conv2d(256, 4, kernel_size=(1, 1), stride=(1, 1))\n","    )\n","  )\n",")\n","Training start...\n","\n","     Epoch  iou_loss  dfl_loss  cls_loss\n","  0% 0/151 [00:00<?, ?it/s]/usr/local/lib/python3.8/dist-packages/torch/functional.py:504: UserWarning: torch.meshgrid: in an upcoming release, it will be required to pass the indexing argument. (Triggered internally at ../aten/src/ATen/native/TensorShape.c
…
